back-end/model.pth (torch, 246132 bytes, 5 tensors)

layers.0.weight f4 [64, 819]
000000 2e 5f 4b bd da 3d 18 bd 8c 02 a2 bc 3f e7 27 bc
       -0.049651317 -0.03716836 -0.019776605 -0.010248004
000010 a1 7b 98 bd 2d 67 86 bd 21 5f 66 bd 3f ab c0 bd
       -0.07445455 -0.06562648 -0.056243066 -0.094076626
000020 35 8b 26 be ad a1 b1 bd 46 68 b0 bd e5 04 55 bc
       -0.16264041 -0.08673415 -0.086136386 -0.013001655
000030 62 3d 46 bd 9b 9c c5 bd d0 e6 89 3d 5a f4 ff bd
       -0.048398383 -0.09649011 0.06733477 -0.12497778
000040 6d 25 73 bd 74 5a b1 bd 98 8a 9e 3d a7 d4 74 bd
       -0.059361864 -0.08659831 0.077412784 -0.059773114
000050 9b 88 af bc f4 ac 97 3d e9 c2 72 bd 3c 32 c0 3b
       -0.021427443 0.07406035 -0.059267912 0.0058653634
000060 65 e8 89 bd f2 b2 26 3d 25 fa 9d bd c1 25 e8 bd
       -0.06733779 0.040698 -0.07713727 -0.11335326
000070 36 93 97 3d 9f bc 82 bd f1 70 06 3c 7c fa a5 bd
       0.07401125 -0.06383633 0.008205638 -0.08104417
000080 42 3d 97 bd 0c dc 8f 3c e5 c2 0a bd b9 83 3f be
       -0.07384731 0.017560981 -0.033877272 -0.18702592
000090 26 6f 94 bd 28 13 28 bd d5 8d a7 3b 56 e4 89 3c
       -0.072477624 -0.041033894 0.0051133432 0.016832512
0000a0 2b 4d 08 be e1 23 9f bd 32 53 2b bd 22 e7 62 bc
       -0.13310687 -0.07770515 -0.041827388 -0.013849052
0000b0 87 ac af bd c4 45 20 bd b2 d1 c4 3d 91 3c a2 bc
       -0.08577829 -0.039129034 0.09610309 -0.019804271
0000c0 21 b9 9d bd 71 51 5b bb 76 41 9d bc 0d 93 d6 bc
       -0.07701326 -0.003346529 -0.019196253 -0.026193166
0000d0 6f 89 f0 bd e8 20 a2 3d 41 58 82 3d c4 7a ae bd
       -0.117449634 0.079164326 0.06364489 -0.085195094
0000e0 60 67 5d 3d 69 59 9d bd 79 e1 7d bd 50 dd 94 bc
       0.054053664 -0.07683069 -0.061982606 -0.018171936
0000f0 6e e6 53 3b 8a 20 52 bd c5 a3 56 ba 6d 66 83 bd
       0.0032333392 -0.051300563 -0.0008187856 -0.064160205
000100 fa da c8 bc f7 14 83 bd 43 99 31 be b3 6b 03 3d
       -0.024518479 -0.06400483 -0.17343621 0.03208513
000110 f1 79 ad bd 25 9c 2e bd e3 ee 41 bc bf d9 30 bd
       -0.08470524 -0.04262938 -0.01183674 -0.04317641
000120 12 70 ea 3c 89 d9 a3 bd 50 4c be bb b0 f9 cb 3b
       0.028617892 -0.08000476 -0.005807437 0.0062248334
000130 b9 ae ee 3c 74 fa ac 3b f6 03 50 3b 04 49 91 bc
       0.029136049 0.00527888 0.0031740642 -0.017735012
000140 72 ed b6 3c 90 b8 5e 3c e1 0c d8 bc 50 64 1d bc
       0.02233002 0.013593808 -0.026373329 -0.009606436
000150 0b b2 1b bc 36 32 c6 bc 66 87 56 3c 4b 7d 57 3b
       -0.009502898 -0.024193864 0.013093805 0.0032881077
000160 15 16 b7 bc bb 11 cc bc a8 b5 ee 3c c6 21 1c bc
       -0.022349397 -0.024910798 0.029139355 -0.009529537
000170 d7 a2 b0 bc 3b ba dc 3c e3 c7 a6 3c d0 db 83 3c
       -0.021562023 0.02694427 0.020358985 0.016096026
000180 44 a2 fc bd 57 09 66 bc 62 50 44 bb a6 9d 4f bb
       -0.12335637 -0.014040313 -0.0029955138 -0.003167966
000190 be 31 9b bc cd f7 0a 3e 04 6c b2 bc 41 df e1 3a
       -0.018944617 0.13571091 -0.021780021 0.0017232673
0001a0 d2 49 34 bd 8e 43 74 bc df 0b a9 3c a5 4a 2f bd
       -0.044015713 -0.014908684 0.020635543 -0.042795796
0001b0 ba 3e 59 3a 00 9c ba 3c 7a ea 4c 3d d1 d5 5d bc
       0.000828724 0.022779465 0.0500283 -0.013539747
0001c0 78 ea 8b 3c e6 42 6f 3c 22 4b bd 3a 1c a0 91 3c
       0.017079577 0.014603352 0.0014441947 0.017776541
0001d0 81 d2 99 bd 43 4a 02 3d 5c 25 d3 bd 57 44 6c bc
       -0.075108536 0.031809103 -0.1030986 -0.01442059
0001e0 c8 bf 06 3d c9 49 d2 bc be 80 c1 3c af 9d 81 3c
       0.03289774 -0.02566995 0.02362096 0.01582226
0001f0 18 b5 1e 3c f6 90 94 bb 58 07 4b bc 11 9c 0a bd
       0.009686731 -0.0045338823 -0.012391888 -0.033840243
000200 93 a6 22 bc 06 93 bf bd 18 21 0a be cb 9e 5a 3c
       -0.00992741 -0.09354214 -0.13489187 0.013343523
000210 48 f7 ab 3c fe 4f 70 bb ac 5d 3d bc d0 df d1 3a
       0.020991936 -0.0036668773 -0.011557978 0.0016012136
000220 09 b9 c2 bc 66 e1 ec 3c f2 03 ca bb 1c f1 c6 3c
       -0.023769872 0.028916072 -0.006165021 0.024284892
000230 3f ed 3c 3d d2 df 81 3a 66 ef 51 3b a7 08 16 3d
       0.046124693 0.0009908623 0.0032033562 0.036629345
000240 7b a8 89 3c 3c 24 79 3c 76 ad 8f bd 27 50 56 bc
       0.01680397 0.015206393 -0.07015507 -0.013080633
000250 8a 0a 4f bb 20 65 fa 3c 3d 15 e2 bc 58 13 90 3b
       -0.0031591975 0.030565798 -0.027598018 0.004396837
000260 20 9c f7 bc 73 a5 cf bc 61 af 6d bc 5f 89 6e bc
       -0.030225813 -0.025347447 -0.014507146 -0.014559119
000270 20 8a de bc 52 d6 62 bc 89 8d 2a bc 16 0c c7 bc
       -0.027165473 -0.013845043 -0.010409721 -0.024297755
000280 52 5e e0 3c bf d2 82 bd c3 f6 07 3b 15 8a d2 bc
       0.027388725 -0.06387853 0.0020746447 -0.025700608
000290 48 df 8d bd 76 52 bb 3c 09 02 23 3c f3 f4 85 3d
       -0.06927353 0.022866469 0.009949216 0.06540861
0002a0 ef 66 84 3d 27 ce 27 bb 34 65 99 bb 77 c1 d7 3c
       0.064649455 -0.0025605054 -0.004681254 0.026337368
0002b0 36 27 03 bd d2 cc 80 bb 41 40 84 bc ab 48 59 bc
       -0.032019816 -0.0039306665 -0.01614392 -0.013261954
0002c0 80 8b 88 bc e8 cb b3 bc 78 85 d8 3c 59 be cd bc
       -0.016668081 -0.021947816 0.02643083 -0.025115179
0002d0 14 42 1c 3c e8 f2 95 bd 54 4b 96 3c 0d c7 2c bd
       0.009537239 -0.07321721 0.018346466 -0.042182017
0002e0 22 a4 ad 3c cc fe 97 3c 71 46 00 bd 05 cd fc bc
       0.021196429 0.018554114 -0.03131718 -0.03085948
0002f0 e3 5b a8 3d 11 01 2e bc a2 f1 e8 bc 97 31 6f 3d
       0.08220651 -0.010620371 -0.028435532 0.058396902
000300 15 c4 3d 3d e7 88 06 bd f8 3f 4f 3c 50 ee 9e bb
       0.046329577 -0.032845404 0.012649529 -0.0048501864
000310 82 d2 c7 3c ad e2 a4 3c 95 8f 20 bc 32 f2 03 3b
       0.02439237 0.020127619 -0.009799858 0.0020133373
000320 7d 94 38 3a 15 8d b8 bd 79 22 0a 3d 18 9d 0b bd
       0.00070411694 -0.09011284 0.033724282 -0.034085363
000330 50 33 b6 bc 86 fc f6 3c 6b 3b ca 3c 35 b2 34 3c
       -0.022241265 0.03014971 0.024686536 0.011028816
000340 3f 69 ae bc 99 53 ca 3c 6f af 14 3b c9 20 a1 bb
       -0.02129042 0.024698066 0.0022687574 -0.0049172384
000350 5f fb ab bb 0a 76 6d 3c 9b 69 b8 bc f2 55 61 bc
       -0.0052484716 0.014493475 -0.022511294 -0.013753401
000360 a5 da f4 3b 71 ea f1 3c a1 c4 6c bd d3 6b 35 3c
       0.0074723535 0.029530736 -0.057804707 0.011073071
000370 3b 7b 8c 3c 34 3d 5f bc 52 74 dc 3c 4c ef 03 bd
       0.017148605 -0.013625432 0.026910935 -0.032210633
000380 77 da 0e bd bc 21 c4 3c 31 17 c0 bc 56 9d af bc
       -0.034876313 0.023941867 -0.023448559 -0.021437328
000390 3c d4 76 bb 46 fd a5 ba 12 02 d8 bd 6b 42 bb 3d
       -0.0037663123 -0.0012663982 -0.1054727 0.091435276
0003a0 05 4b 90 3d 24 12 be bd 4d 26 02 bd 03 35 6e bd
       0.07045559 -0.09280804 -0.031774808 -0.058156025
0003b0 62 71 a3 3c f7 22 d9 3c 8c 58 8c 3c 8d ca 98 bd
       0.019951526 0.02650593 0.017132066 -0.074605085
0003c0 9e 3e ba bc b3 c9 09 bd 50 0a 59 bc 7b 39 3a 3a
       -0.022734936 -0.03363962 -0.013247088 0.0007103902
0003d0 bd 05 76 bc 5f 88 74 bd b4 9d 05 3d 8d e2 71 bc
       -0.015016017 -0.059700366 0.0326211 -0.014763487
0003e0 52 42 0a 3d 4d 00 86 3c c8 2f b9 bc d9 64 e6 bc
       0.033754654 0.016357565 -0.022605792 -0.02812426
0003f0 af 95 c3 bb 1a 16 22 3c 25 91 f2 bc e6 24 3a 3c
       -0.0059687714 0.009892965 -0.029610226 0.011361336

layers.0.bias f4 [64]
000000 80 4d 53 bd 28 9d 59 be d1 29 58 bd e5 98 60 be
       -0.05158758 -0.21251357 -0.052774254 -0.21933325
000010 65 19 83 bd 20 d8 33 be 06 83 22 be a5 f6 53 bd
       -0.06401328 -0.17562914 -0.15870294 -0.05174889
000020 d7 54 ab 3c a0 3d f7 bd 78 55 89 bd 74 25 1d bd
       0.020914478 -0.12072301 -0.06705755 -0.038365796
000030 87 de 3a be b0 e6 1d be 64 c1 c1 3e 4c 17 16 bd
       -0.1824895 -0.15420032 0.37842858 -0.03664331
000040 ae bc 81 bd f0 52 7e bc 6a 48 38 3f 3f 90 ca bb
       -0.06334816 -0.0155227035 0.71985495 -0.0061817463
000050 d3 33 c1 3b ea 35 e3 3e e4 8d 0d bd 56 32 8e bb
       0.0058960705 0.4437707 -0.034559146 -0.0043394966
000060 29 b6 8e 3b 9a 69 d4 bb 28 ac ec bc b2 3c d1 3e
       0.0043552113 -0.0064823152 -0.028890684 0.4086662
000070 b8 29 84 c0 7b 88 3c bd 5a 12 6f 3e 09 c8 54 c0
       -4.1300926 -0.046028595 0.23346844 -3.3247092
000080 9c 47 2c be ae 9f 10 bd fa 92 71 bc 4c d3 8b bc
       -0.16824192 -0.035308532 -0.014744515 -0.017068528
000090 51 55 01 be 72 04 ba bd 4e d7 ff 3a 10 0e 28 be
       -0.12630202 -0.09082879 0.0019519122 -0.16411614
0000a0 7f 26 58 be d4 4a 84 bd 07 e6 8f bd 4d 18 43 be
       -0.21108435 -0.06459585 -0.07026296 -0.19052239
0000b0 65 00 ac 3f c8 22 32 bd e3 52 9a bc d8 b8 81 bd
       1.343762 -0.0434902 -0.018838352 -0.06334084
0000c0 c3 9a bf be 2b f4 ee bd 08 74 10 bd 92 b5 2b bc
       -0.3742276 -0.11667665 -0.035266906 -0.010480301
0000d0 2e a7 27 bd e7 9f b8 bc 34 4c 37 c2 34 dc f5 bd
       -0.04093092 -0.022537185 -45.824417 -0.12004891
0000e0 d1 d5 1b bd c2 30 09 bb e1 ec 36 be ca 80 aa 3a
       -0.038045708 -0.0020933603 -0.178638 0.0013008353
0000f0 54 8d ee be 65 a6 01 3c b7 a1 36 3b 7f 47 0d be
       -0.465922 0.007913207 0.0027867386 -0.13796805

layers.2.weight f4 [128, 64]
000000 8e 27 2f bc 09 55 fe 3d 87 f0 83 3d 20 7a 9a bc
       -0.010690583 0.12418563 0.06442361 -0.018857062
000010 64 e7 8b bb b7 f0 90 3e db 97 a1 3e 29 e8 6b 3d
       -0.0042695273 0.2830865 0.3156117 0.057594452
000020 44 5d b3 3d de ed 63 bd fc 13 26 3e d6 eb c5 bd
       0.087580234 -0.05564677 0.16218561 -0.09664123
000030 00 40 7d 3d 31 b4 8a 3d e8 64 98 3e a0 ba 70 3d
       0.061828613 0.0677265 0.29764485 0.05877173
000040 d9 14 b2 bd bd 32 4e 3c 4b 8d dc bd c8 fb dc bd
       -0.086953826 0.012585339 -0.10769137 -0.10790211
000050 78 8e 11 bd 30 20 b8 bd d4 c3 e0 3d 15 67 18 3e
       -0.03553626 -0.08990514 0.10974851 0.14883073
000060 58 f1 da 3d 40 90 b0 bc 92 7e 29 3d fd 06 94 bd
       0.10690564 -0.021553159 0.041380472 -0.072278954
000070 7e a8 4b 3f 3d 9b 1f 3e 73 a1 52 3c 66 8a e4 be
       0.79553974 0.15586562 0.012855875 -0.4463684
000080 20 cb 8d 3d 88 e7 cd bc de 1f d3 bd 4a a0 f3 bc
       0.06923509 -0.025134817 -0.103088126 -0.029739518
000090 e9 ee 9d bd 68 91 11 bd ec db d5 3d 40 0f f7 3d
       -0.07711584 -0.03553906 0.104423374 0.120634556
0000a0 6f f8 4e bd 00 29 3c 3b c1 40 1b be 22 85 e3 3d
       -0.050529893 0.0028710961 -0.1516142 0.111093774
0000b0 b7 08 81 bd a8 ae f7 bd b9 f3 10 bc 9c 94 c3 bb
       -0.0630049 -0.1209386 -0.0088471705 -0.0059686434
0000c0 87 c3 12 bd 73 93 88 bd a2 60 cd bd e8 31 a3 3c
       -0.035831 -0.06668749 -0.10028197 0.019921258
0000d0 89 78 5d bd 1e 5b 97 3d f6 0a 0a bf 22 95 33 3c
       -0.05407003 0.07390426 -0.53922975 0.010960849
0000e0 bc 27 2d bd b4 08 43 3d 8c 10 77 3d d0 ce 71 3d
       -0.04227422 0.04761572 0.060318515 0.059035122
0000f0 88 8b 1f 3c 00 38 62 3c 6c 3e 18 bd 2b 8d a0 3d
       0.009737857 0.013807297 -0.037168905 0.07839426
000100 00 78 71 b9 2d ff ba 3b bc 34 9e bd 28 f4 62 3d
       -0.00023028255 0.005706689 -0.07724902 0.055408627
000110 38 5d 13 3d c8 03 c7 bd 82 53 15 be 88 28 76 3d
       0.035977572 -0.09717518 -0.14582637 0.060097247
000120 c8 3b b6 3d be a8 44 bd 42 c3 bf bd b8 77 ee 3d
       0.08898121 -0.048012488 -0.09363414 0.11643928
000130 9c c5 95 3d 3a df 9b bd b1 63 ad bd 00 98 98 bb
       0.073130816 -0.076109365 -0.0846628 -0.0046567917
000140 7c e7 14 bd ec 71 b2 3d 37 3c 73 be c0 c7 51 bb
       -0.036353573 0.08713135 -0.23753439 -0.003200993
000150 e4 1d cc 3d b2 50 7f be 76 b8 a0 bd 64 86 00 3d
       0.09966639 -0.24933127 -0.07847683 0.031378165
000160 e0 2b b5 bc 34 42 14 bd 44 d7 db 3d 56 2d 47 be
       -0.022115648 -0.03619595 0.10734418 -0.19450888
000170 b5 00 c2 bd a6 bb 95 3d be 04 40 be 63 61 26 bc
       -0.09472791 0.07311182 -0.18751809 -0.010155055
000180 d4 35 27 3d 80 73 1b bd ee fb e5 bd 36 33 9b bd
       0.04082282 -0.037951946 -0.112296924 -0.07578127
000190 8b 6a ad bd 1c 1b ee bd 0c c7 19 bd a0 92 f0 3b
       -0.08467587 -0.116262645 -0.03754334 0.007341698
0001a0 40 4c 0d bc d0 2f 0f bc 80 6e 18 bb 10 5c c2 bd
       -0.008624136 -0.008739427 -0.0023259223 -0.09490216
0001b0 43 f7 1b be 16 3c 9c bd ea b6 d9 3d f8 6f 89 3c
       -0.15231042 -0.07628648 0.10630591 0.016777024
0001c0 c5 d5 e2 bd dc a3 6d bd a8 65 ac bc 34 7e a5 bd
       -0.110759296 -0.058017597 -0.021044567 -0.08080712
0001d0 20 36 fb 3c 60 5f b4 bc e4 63 6c be 49 39 66 3e
       0.030665457 -0.022018135 -0.2308498 0.2248279
0001e0 50 ee a7 bd b4 e8 9c bd 94 2e 16 3d 00 0b a0 bc
       -0.081997514 -0.07661572 0.036665514 -0.019536495
0001f0 14 15 44 be 2e 44 9d bd 50 0b c7 bc 28 b7 e5 3d
       -0.19148666 -0.0767902 -0.024297386 0.11216575
000200 a8 a5 d5 bd 6a eb 1c 3d f3 50 40 3c 76 96 02 3d
       -0.10431987 0.038310446 0.01173805 0.031881772
000210 3f 6e 8c 3d 82 c4 75 3e 74 e2 74 bd 68 95 39 bd
       0.06856965 0.24000743 -0.059786275 -0.0453085
000220 d2 ee c3 3d 14 08 17 3c e5 cc da 3b 16 f7 9f 3d
       0.09567036 0.009218235 0.0066772574 0.078108
000230 59 cf a6 3d f5 8f a6 3b 0e f4 80 bd bb 6d a0 bd
       0.08145017 0.005083079 -0.0629655 -0.078334294
000240 eb 78 9f 39 bc c4 5f 3c 0c ff 51 3d 18 47 81 bd
       0.00030416934 0.013657745 0.051268622 -0.06312388
000250 2c 3e 32 3d 8e 4e 11 bb 36 f3 ad 3c e2 51 d5 3d
       0.043516323 -0.0022172066 0.021234136 0.104160085
000260 4c 9e 2a bc 58 11 f1 bc 8f 43 9d 3d 3b 16 94 3d
       -0.0104137175 -0.029427215 0.076789014 0.072308026
000270 87 8d e0 be cc ef 9b bd ca bc ad 3d d0 04 7e 3e
       -0.43857977 -0.07614097 0.08483274 0.24806523
000280 d9 d7 85 bd c4 aa 10 be 95 e7 01 3e 09 85 94 3d
       -0.0653531 -0.14127642 0.12685998 0.07251937
000290 a0 d2 97 3d fe 44 18 3e d7 ff 68 bd 89 28 fa 3d
       0.074132204 0.14870068 -0.056884613 0.12214763
0002a0 a2 4a 90 bd 89 49 8e 3b 56 d1 9d bd 8f 60 a0 bd
       -0.07045485 0.004342262 -0.07705943 -0.07830917
0002b0 0d 27 cf 3c 20 ca 18 bd 38 cb c9 3d 24 94 89 bd
       0.025287176 -0.037302136 0.09853214 -0.06717709
0002c0 97 67 8a bd e8 3e 0c 3e c9 99 9b bd e0 a5 ad bd
       -0.067580394 0.13695872 -0.075976916 -0.08478904
0002d0 2f e1 2d bc 62 49 b8 bc 2d 1d 9e be 8e d2 86 3d
       -0.01061277 -0.02249593 -0.30881634 0.06583129
0002e0 fc 08 9b b9 bc 1c 5b 3d 8c 85 ad 3d 52 16 23 3d
       -0.00029570598 0.0534942 0.08472738 0.03981621
0002f0 1b ff e1 3d b2 e5 ee bd c2 a9 f4 3d d8 ad 95 bc
       0.11034986 -0.11664905 0.11946441 -0.018271372
000300 e0 91 d6 3c 02 c5 02 3d fc 05 11 3d 60 3e 99 3b
       0.026192605 0.031926163 0.035406098 0.004676625
000310 44 b8 2f 3d 7f 74 62 be 98 3f 0f bd 50 c0 c3 3d
       0.04290034 -0.22114752 -0.034972757 0.09558165
000320 4d e5 0c be 40 d4 d1 bb 48 12 53 3d 5e 97 d3 3d
       -0.13759346 -0.006403476 0.051531106 0.103316054
000330 0c 05 ce bd 4c 70 5f 3d f7 88 e6 bd f0 bd 52 3c
       -0.10059556 0.054550454 -0.11256593 0.012862667
000340 e4 7c 48 3d fa dc 8f bd 39 00 f0 bc 58 64 f1 bc
       0.04894723 -0.0702457 -0.029296981 -0.029466793
000350 08 d3 e2 bd b6 25 36 be b0 86 39 3c ca d3 fa bd
       -0.11075407 -0.17787823 0.011323616 -0.12247427
000360 a2 96 81 bd 24 74 be bd 06 f5 a0 bd af 0b ca bd
       -0.06327559 -0.09299496 -0.078592345 -0.0986551
000370 e1 6b 33 be 48 8d 8f bd d8 ac 17 be aa c3 30 bc
       -0.17521621 -0.07009369 -0.14812028 -0.010788837
000380 14 bf 04 bd 32 75 cd 3d 08 30 cd bc 74 c1 12 bd
       -0.03240879 0.10032119 -0.025047317 -0.035829023
000390 70 c4 a9 bc d6 fb a0 3d d6 d4 a3 3d 50 8a 09 3c
       -0.020723552 0.07860534 0.079995796 0.008394793
0003a0 60 b9 fe 3d ac 99 9a bd a4 2d d0 bd 47 fb fd bc
       0.12437701 -0.07548842 -0.10164955 -0.031003607
0003b0 86 98 b8 bd 40 9b 62 3c aa 97 e9 bd e8 ca fb bc
       -0.090134665 0.01383096 -0.11405881 -0.030736402
0003c0 40 e2 ea bd 8c 2e ac bd 14 a9 9d bd 6e 7b 87 bd
       -0.11468935 -0.084073156 -0.07698265 -0.06615339
0003d0 89 ea a2 3c 14 a5 a4 bd f7 f3 05 be 46 31 d9 bd
       0.019887226 -0.08039299 -0.13081346 -0.10605101
0003e0 62 fa e1 bd c4 7a b7 bd 84 a4 11 3d 00 c5 93 3b
       -0.11034085 -0.089589626 0.035557285 0.004509568
0003f0 fa 16 e3 bd 60 91 1f 3c c8 52 a8 bd 20 85 1b 3d
       -0.11088367 0.00973925 -0.08218914 0.037968755

layers.2.bias f4 [128]
000000 27 76 7b bd 67 44 34 be 98 04 ee bd 46 b6 a4 be
       -0.061391976 -0.17604218 -0.1162197 -0.32170314
000010 29 ac a2 bc 2a a7 09 be 72 f7 cc be 42 fc 3a be
       -0.019857483 -0.13442674 -0.40032536 -0.18260291
000020 6f 83 12 bf 73 e1 a7 be 03 0d ca be d0 82 55 3f
       -0.572318 -0.32789192 -0.39463052 0.8340273
000030 b6 02 a7 bd bf bb c2 bb 94 93 08 bf b0 45 84 be
       -0.08154814 -0.0059427912 -0.53350186 -0.25834417
000040 e4 d2 a1 bd 6a 96 a3 be 56 a4 06 bd 79 f4 a3 be
       -0.07901552 -0.31950694 -0.032871567 -0.32022455
000050 6b b2 8f be fb ee 92 bd 5b 43 10 bf 1b e4 47 bd
       -0.2806581 -0.07174488 -0.56352776 -0.048801523
000060 e2 a3 85 be fb 21 04 bf a1 ad 60 b8 b4 b5 a6 bf
       -0.26101595 -0.5161435 -5.3567466e-05 -1.3024201
000070 23 3e c0 be 80 2b da be ee 43 45 be 51 0f 1d be
       -0.37547407 -0.42611313 -0.19264194 -0.15337874
000080 e1 46 e5 bd b5 ea 17 be 16 55 ec bd 96 61 54 bd
       -0.1119516 -0.14835627 -0.11539666 -0.051850878
000090 2d 07 bb be 82 98 22 bf 90 95 a2 be 63 fd 43 be
       -0.36528912 -0.6351396 -0.31754732 -0.19139628
0000a0 6f 09 40 bd 8d d4 3a c0 53 25 0f be ab 35 12 be
       -0.046883997 -2.919223 -0.13979082 -0.14278285
0000b0 af b7 b6 40 3c 96 22 bf 98 4e ca be aa b9 11 bf
       5.7099223 -0.6351049 -0.39513087 -0.56923926
0000c0 46 63 ef be a3 46 ab be 26 4f 16 bf 97 ea a1 be
       -0.46755427 -0.3345233 -0.5871452 -0.3162429
0000d0 26 75 5e be 20 a3 39 c0 b6 e7 44 be 12 46 d6 be
       -0.21724376 -2.9005814 -0.19229016 -0.41850334
0000e0 88 0f af bf e8 c6 cb be d2 73 32 bd 86 0f e8 be
       -1.3676615 -0.3980019 -0.043567486 -0.45324343
0000f0 e1 f7 56 be 0f 67 79 bf b6 d0 08 bf 87 3f 9e bd
       -0.20992996 -0.9742288 -0.5344347 -0.07726961
000100 92 63 20 bf 2f fc a9 bf ef 6b 4d bd a9 f6 b4 be
       -0.6265193 -1.3280085 -0.05015176 -0.35344437
000110 57 98 1a bf 0a eb 3b be df 27 b4 b9 80 71 d5 be
       -0.603887 -0.18351379 -0.00034361982 -0.41688156
000120 90 ee 83 be 67 d1 50 be a8 70 c1 bd 04 90 67 be
       -0.25767946 -0.2039238 -0.094453156 -0.22613531
000130 5a 86 81 b4 3b 1e 89 bd ac f7 ac be 21 7e 82 c1
       -2.4125876e-07 -0.06695219 -0.3378271 -16.311586
000140 9f e5 a5 be cd 38 a2 be 76 24 11 c0 7c e4 77 bd
       -0.3240175 -0.3168396 -2.2678504 -0.060520634
000150 e9 95 a8 be b0 00 e4 be 4a cd ab be 39 85 00 be
       -0.32926872 -0.44531775 -0.3355506 -0.1255082
000160 b0 b0 aa bd d0 bb a3 be 41 d5 a2 be e9 a8 1d be
       -0.08334482 -0.31979227 -0.31803325 -0.15396465
000170 0b a1 2f bf 0b 66 00 bf 82 4b 3e be 34 f3 46 bf
       -0.6860511 -0.50155705 -0.18583491 -0.7771485
000180 01 d4 0b be a2 48 3e be 36 19 bc b4 ec e3 9f be
       -0.13655092 -0.18582395 -3.5036072e-07 -0.31228578
000190 fd bd a8 be 9a b6 82 be 90 e0 ad be c2 68 53 bf
       -0.3295745 -0.2552994 -0.3396039 -0.8258172
0001a0 b9 27 9e bc 27 2b 7a b8 9e cd de ad 06 29 be be
       -0.01930605 -5.9644834e-05 -2.532979e-11 -0.37140673
0001b0 be e2 3e be 26 79 20 be cc 54 5a be 6c 39 4f be
       -0.18641183 -0.15671214 -0.2132141 -0.20236748
0001c0 eb 16 4b c0 0f 31 ea bc dc 09 78 bc d5 c0 a0 bf
       -3.1732738 -0.028587846 -0.015139069 -1.2558848
0001d0 5f 3b 3c bd e1 22 00 bf db aa 9b ad 25 7e a8 be
       -0.04595506 -0.5005322 -1.7697335e-11 -0.3290874
0001e0 63 9b 9c bf ae a1 47 bf 74 93 69 bc 98 1a a9 b9
       -1.223492 -0.7798108 -0.014256347 -0.00032254006
0001f0 71 f7 71 be 84 c9 e1 be 7d ba 85 bf 37 56 8c be
       -0.23629548 -0.44099057 -1.0447537 -0.27409527

layers.4.weight f4 [1, 128]
000000 1c da 04 bf 76 29 da bd fe c2 5e be f3 dc e8 bd
       -0.5189531 -0.10652439 -0.21754071 -0.11370268
000010 c2 c9 20 be d7 29 a1 bd 9b 83 1d be ee 46 5c 3d
       -0.15701964 -0.078693084 -0.15382235 0.05377858
000020 2e 0c 4d bd 58 c3 21 bc e0 e9 bd 3d e8 08 68 bf
       -0.050060444 -0.009873234 0.09273124 -0.9063859
000030 54 af b6 bd ae 90 9f bc d8 d1 0f be 8c 18 61 be
       -0.0892016 -0.019478168 -0.14044893 -0.2198202
000040 6d 11 1c bd 83 9f 57 3d c5 a7 38 bc 06 46 bf bd
       -0.038102556 0.052642357 -0.011270468 -0.09339528
000050 3b 2f ac ba c7 ab 9f be ca d2 5c bf 13 ae 5a 3e
       -0.0013136634 -0.31185743 -0.8625914 0.21355467
000060 18 e4 35 3d e9 af 71 bd 82 27 00 39 0a 0e d6 bd
       0.04440698 -0.05900565 0.00012221749 -0.104518965
000070 4f 7c cd 3c 8b cb 19 be ca 8e e3 3c c9 63 70 be
       0.025083689 -0.15019052 0.027778048 -0.23475565
000080 25 8b 2a be d3 a4 12 be d8 a3 e5 bd f1 f8 da bb
       -0.16654642 -0.14320688 -0.11212891 -0.006682508
000090 30 21 00 3e 2d 3c 68 3d 37 16 bf 3d 20 80 f4 3d
       0.1251266 0.056698013 0.09330409 0.119385004
0000a0 b5 e6 07 bf 96 83 ac bd 17 5d f9 bd 00 c1 2e bd
       -0.53086406 -0.084235355 -0.121759586 -0.042664528
0000b0 3a da 09 be cb 75 1a be 4a 0b c7 3d 9a ec a9 3b
       -0.13462153 -0.15083997 0.0971895 0.005185676
0000c0 de 1b 1f 3c 93 7f 25 bd 6d b9 e9 bd c5 75 f9 bc
       0.009711234 -0.040404867 -0.1141232 -0.030451665
0000d0 d4 79 19 bd 7c 46 12 3e c4 bd 95 be fb fe 47 bd
       -0.0374697 0.142847 -0.29246342 -0.048827153
0000e0 4a 13 47 3c a1 47 0e be 33 62 41 be a6 1a b5 bd
       0.012150595 -0.13894512 -0.18885116 -0.088429734
0000f0 c1 c3 73 be 61 27 9d bd 81 57 0a 3d 84 52 6c 3d
       -0.23805143 -0.076735266 0.033774856 0.05769588
000100 1a 88 be bd 93 59 4e bd 5f 64 b1 be 51 2e 0a 3d
       -0.09303303 -0.050378393 -0.3464689 0.033735577
000110 99 1e ac 3d df 5d 63 bd 19 ab 92 bc 2b 89 b2 bd
       0.084042735 -0.055509444 -0.017903851 -0.08717569
000120 43 ed da bb 17 07 a4 3d 89 5b 58 be c0 aa c7 be
       -0.006681116 0.08009165 -0.21128668 -0.3899746
000130 34 6b 2e 33 b2 fe 0d bd 48 d6 1d bd 33 55 e6 3d
       4.0610033e-08 -0.034666725 -0.038534433 0.11246719
000140 8f e3 a7 bd 41 44 32 be 68 e5 92 3d 7a c3 8b 3d
       -0.081977 -0.1740885 0.07172662 0.068243936
000150 b2 f1 c6 3d 19 f8 53 3d b9 f0 8a bc 62 73 0a 3c
       0.097140685 0.051750276 -0.016960489 0.008450361
000160 0b f0 2c be b3 4c ef bd 6d a9 af 3d aa 56 ef bd
       -0.16888444 -0.11684551 0.08577237 -0.11686452
000170 30 c1 d4 3a e5 55 b2 3d b5 ee 8c be 7f 1e 93 3d
       0.0016231891 0.08707789 -0.2752587 0.07183551
000180 2a 79 68 be d5 62 54 bd 1e ba 06 35 59 28 fd bc
       -0.2270247 -0.051852066 5.0189726e-07 -0.030903028
000190 30 91 00 3e 37 02 a3 3d 03 2c 49 3d e6 2e 68 bd
       0.12555385 0.07959407 0.04911424 -0.05668535
0001a0 e7 e9 0f be 1a 0c 3a 39 9c e2 bf ac 72 8f 69 3d
       -0.1405407 0.0001774285 -5.453705e-12 0.057021566
0001b0 6d 11 32 be 18 9a 4f bf 2e 93 be 3b aa 5c 9c 3d
       -0.1738946 -0.81094503 0.005815885 0.07634862
0001c0 14 81 2e be 03 0d 08 3e dd eb 1c bc e0 11 6c 3c
       -0.17041427 0.13286214 -0.009577719 0.014408559
0001d0 31 3a 70 be 51 38 bc 3d f8 c2 44 ad 80 86 e0 bc
       -0.23459698 0.09190429 -1.1184602e-11 -0.027407885
0001e0 72 7a c6 bd ff d8 2d be 70 e6 4f 3c 30 2d 1c 3a
       -0.09691323 -0.16977309 0.012689218 0.0005957661
0001f0 0d 64 e0 3d f5 b4 b6 3d 33 1a 0e be c5 84 98 bd
       0.10956583 0.089212336 -0.13877182 -0.07447199
