back-end/model.pth (torch, 246068 bytes, 5 tensors)

layers.0.weight f4 [64, 819]
0	0xbea82f07	-0.3284838
1	0x40689051	3.6338084
2	0xbe1561d8	-0.14588106
3	0xbf939bbb	-1.15319
4	0xbe44b4c7	-0.19209586
5	0xbedaa2c1	-0.42702296
6	0x3f1c1e8c	0.6098411
7	0x3fac8e0c	1.3480849
8	0x3fb552ef	1.4165934
9	0x3ea8d698	0.32976222
10	0x3f212947	0.6295361
11	0x3c28eba9	0.010310092
12	0x40e9292e	7.286277
13	0xbea2d9c5	-0.3180677
14	0xbf39f9a5	-0.7264655
15	0x406cf0c7	3.702196
16	0xbe0003ad	-0.12501402
17	0xbd3c97d8	-0.046043247
18	0x3e875d60	0.26438427
19	0x3f84e3c0	1.0382004
20	0xbdf9eb0f	-0.12203037
21	0x3e800515	0.25003877
22	0x3f9fb1e2	1.247616
23	0x4059fad7	3.405935
24	0x4052c53b	3.293288
25	0x3ee5083f	0.44732854
26	0x3fde1e26	1.735295
27	0x3fc1b379	1.5132896
28	0x404031ad	3.003032
29	0x40af957a	5.4869967
30	0x40190685	2.391023
31	0x408b41d0	4.3517838
32	0x40af98ad	5.487387
33	0x401645df	2.3480146
34	0x3fd00cb4	1.6253877
35	0x3df3c2fa	0.11902423
36	0x40084f71	2.1298487
37	0x3fec3db6	1.8456333
38	0x3fb2e113	1.3974937
39	0x3f89585e	1.0730093
40	0x3fb7336f	1.4312571
41	0x3fe4a7c9	1.7863704
42	0x40068cba	2.1023393
43	0x3f309728	0.68980646
44	0x4091c804	4.555666
45	0x3f920121	1.1406595
46	0xbe33ca2d	-0.17557593
47	0x40ddff26	6.937396
48	0x3ff8e72a	1.9445546
49	0x3fdb2368	1.712018
50	0x4009960e	2.1497836
51	0x3fb7d836	1.4362857
52	0x3fce2269	1.6104251
53	0x401fc641	2.4964755
54	0x40dcd825	6.901385
55	0x4017eed3	2.3739517
56	0x40859a0c	4.1750546
57	0x403b2e2a	2.9246926
58	0x3f8a5932	1.080847
59	0x4004c38b	2.074435
60	0x401f603e	2.4902492
61	0x3f6b9083	0.9201738
62	0xbf325bba	-0.69671214
63	0x3ffb6366	1.9639709
64	0x3feaa48f	1.8331469
65	0x40a8602f	5.261741
66	0x408182ba	4.047208
67	0x40bc0f03	5.8768325
68	0x40cd2535	6.410792
69	0x40463aba	3.0973344
70	0x408aa632	4.3327875
71	0xbeb0f4f1	-0.34561875
72	0x3d1fa18e	0.03897243
73	0x3f2158a6	0.6302589
74	0x3d1e60c6	0.03866651
75	0xbd39f147	-0.045396116
76	0xbdbe1d5b	-0.09282943
77	0xbc46d792	-0.012136357
78	0x3d546998	0.051858515
79	0xbd59374d	-0.053031255
80	0xbdb34e60	-0.08755183
81	0xbdd3b77f	-0.103377335
82	0x3ded1c2b	0.11577638
83	0xbeb28d82	-0.34873587
84	0x3e101e9a	0.14074174
85	0xbe846a78	-0.2586248
86	0xbce67a0d	-0.02813437
87	0xbde94b2e	-0.113912925
88	0x3e1fda54	0.1561063
89	0xbe5aa667	-0.2135254
90	0x3f24cd08	0.6437535
91	0xbe1b13e7	-0.15144311
92	0x3e1760e1	0.1478305
93	0xbdd25fb2	-0.10272159
94	0x40f9942c	7.7993374
95	0xbddacd45	-0.10683683
96	0xbe9e1263	-0.30873403
97	0xbe38da1e	-0.18051955
98	0xbe1d7ccf	-0.15379642
99	0x3d6828bf	0.056679484
100	0xbd419500	-0.047261238
101	0x3da43ecf	0.08019792
102	0xbe699750	-0.22811627
103	0x3c18fd87	0.009337789
104	0xbe668a62	-0.22513726
105	0x3cf552d7	0.029946728
106	0x3dbf3c31	0.093376525
107	0xbdf57e3b	-0.11986967
108	0x3ce567b1	0.028003545
109	0xbd7eee1c	-0.062238798
110	0xbcd41fac	-0.025894009
111	0x3d5d66d2	0.054053135
112	0x38a07bd2	7.652458e-05
113	0xbde896d9	-0.11356897
114	0x3c34c7a0	0.011033922
115	0x3d9c331b	0.07626935
116	0xbe31577c	-0.17318529
117	0xbe90e8cc	-0.2830261
118	0xbe561bf0	-0.20909095
119	0xbd603dc6	-0.05474641
120	0xbe701158	-0.23444116
121	0x3e05ab77	0.1305369
122	0xbd7bb60d	-0.061452914
123	0xbe8cc2d1	-0.27492383
124	0xbdb5ed92	-0.088832036
125	0x3d9e4dd4	0.07729688
126	0xbe95335b	-0.29140744
127	0xbebd19af	-0.36933658
128	0x3d86931b	0.06571027
129	0xbe5266b0	-0.20546985
130	0x3e347bcb	0.17625348
131	0xbdfe576a	-0.12419017
132	0x3d3bc5e3	0.045843016
133	0xbded7f3c	-0.11596534
134	0xbe4244c5	-0.18971546
135	0x3b71c3fb	0.0036890495
136	0x3c16e996	0.009210965
137	0xbe015675	-0.12630637
138	0x3c40ab57	0.011759601
139	0xbe77449d	-0.24147268
140	0x3dd664fb	0.10468479
141	0xbe54805a	-0.20752087
142	0x39da28d8	0.0004161063
143	0xbd92e3ce	-0.071723565
144	0xbdbe8cb0	-0.09304178
145	0x3f56c3a2	0.8389226
146	0xbe440c0f	-0.19145225
147	0xbcf71a85	-0.030164013
148	0xbe16fd85	-0.14745148
149	0xbe8e757d	-0.2782401
150	0xbc952295	-0.018204967
151	0xbd24c713	-0.040228914
152	0x3c93c06b	0.018036088
153	0xbdaf7572	-0.08567323
154	0xbe4c5ad3	-0.19956522
155	0xbea7657c	-0.32694614
156	0xbe46ab13	-0.19401197
157	0x3deb307d	0.11483858
158	0xbeaf035a	-0.34182245
159	0xbdc3f471	-0.09568108
160	0xbd528190	-0.05139309
161	0x3eeb0e42	0.45909315
162	0xbe193f7f	-0.14965628
163	0xbe83ee00	-0.25767517
164	0x3e987525	0.29776874
165	0x3e0a73fd	0.13520809
166	0x3c84394b	0.0161406
167	0x3f628c0d	0.8849495
168	0x3f25504b	0.6457564
169	0x3cdfd67a	0.02732395
170	0xbdd97a43	-0.10619023
171	0xbe42af13	-0.19012098
172	0xbd9084e0	-0.07056594
173	0xbe58eb4f	-0.21183513
174	0xbdd18860	-0.102310896
175	0xbe00d7eb	-0.12582366
176	0x40399c9c	2.9001837
177	0xbcd7508d	-0.026283527
178	0x3de12db3	0.109950446
179	0xbe11b4ce	-0.14229128
180	0x3ca706f3	0.020389056
181	0x3dcb079d	0.099135615
182	0xbe9f90ec	-0.31165254
183	0xbe209525	-0.15681894
184	0xbcb001b4	-0.021485187
185	0xbe9a7d6a	-0.30173808
186	0xbe292974	-0.1651972
187	0xbe2cdacb	-0.16880338
188	0xbec9817a	-0.39356595
189	0xbea96486	-0.33084506
190	0xbe324a3c	-0.1741113
191	0xbdc1f565	-0.094706334
192	0xbdfeced8	-0.12441796
193	0xbe86d339	-0.26333025
194	0x3e3cd6a9	0.18441261
195	0xbe4724f3	-0.19447689
196	0xbe0c0dc0	-0.1367712
197	0xbe6cfe26	-0.23143825
198	0x3d31a7aa	0.043372788
199	0x3f1a932b	0.6038081
200	0x3e24e1e0	0.1610179
201	0xbe8dfcbd	-0.27731887
202	0x3def751d	0.116922595
203	0x3d885365	0.06656531
204	0xbd989cff	-0.0745182
205	0xbe07acf1	-0.13249566
206	0x3d0163db	0.03158937
207	0xbe202eac	-0.15642804
208	0x3e7f5ea3	0.24938445
209	0x3d9c40a3	0.07629516
210	0xbe507e63	-0.20360713
211	0xbeb306ac	-0.34966028
212	0x3dc57409	0.096412726
213	0xbdf343e9	-0.11878187
214	0xbe24381f	-0.16037033
215	0x3dd1e32f	0.1024841
216	0x3e933c2a	0.2875684
217	0xbdb3eae3	-0.087850355
218	0x3da4fe57	0.08056324
219	0xbeaa40ba	-0.33252507
220	0xbc0c9666	-0.00858078
221	0xbd985f81	-0.07440091
222	0xbd910a28	-0.07082015
223	0x3dd52270	0.10406959
224	0xbe264800	-0.16238403
225	0xbd282b06	-0.041056655
226	0x3c525bfe	0.012839315
227	0xbc5df549	-0.01354725
228	0xbe2cb9b5	-0.16867717
229	0xbd270639	-0.04077742
230	0x3e925ec0	0.28587914
231	0xbc5f1ead	-0.0136181535
232	0x3e84dcb2	0.25949627
233	0x3ce4baef	0.027921168
234	0x3ddd46a4	0.10804489
235	0xbd2e5163	-0.042558085
236	0xbb604c6f	-0.0034225245
237	0xbbef2060	-0.0072975606
238	0xbdcefae4	-0.10106447
239	0x3eda57fb	0.4264525
240	0x3e03272b	0.1280791
241	0x3eadc233	0.33937225
242	0x3e198efe	0.14995953
243	0xbe4db2cf	-0.20087741
244	0xbce4ef46	-0.027946126
245	0xbe2bab36	-0.1676453
246	0xbc57d4ad	-0.013173264
247	0xbac34ee2	-0.0014900828
248	0xbdbe69bf	-0.09297513
249	0xbe0e7db3	-0.13915138
250	0xbe2f2e81	-0.17107584
251	0xbe129a8c	-0.14316767
252	0xbe41578b	-0.18881051
253	0xbe307b7e	-0.17234609
254	0xbc4b63fd	-0.012413976
255	0xbf3ead61	-0.74483305

layers.0.bias f4 [64]
0	0xc0320f3c	-2.7821798
1	0xbd6c1cdf	-0.05764472
2	0xbd3b99c1	-0.045800928
3	0xbc6fc990	-0.014635459
4	0xbd0fc30a	-0.035098113
5	0xbc5e8fcd	-0.013584089
6	0xbd541caa	-0.05178515
7	0xbe14c233	-0.14527206
8	0xbad89e17	-0.0016526607
9	0xbd8995d1	-0.06718028
10	0xbd5fc379	-0.054629777
11	0x3b7c56e2	0.0038503935
12	0xbd06cfc0	-0.03291297
13	0xbdc0eed3	-0.09420552
14	0xbd4d5268	-0.050127417
15	0xbe69e316	-0.22840533
16	0xbd5c1776	-0.05373331
17	0xbe1f7115	-0.15570481
18	0xbb05fb9a	-0.0020444156
19	0xbc9f50ab	-0.019447645
20	0xbc210121	-0.009826929
21	0x3c5ecae8	0.013598181
22	0x3af8b9ce	0.0018976273
23	0xbae4945e	-0.0017439236
24	0xc237dad6	-45.963707
25	0xbe14705e	-0.1449599
26	0x3f741c70	0.9535589
27	0x3f3bc933	0.7335388
28	0x3c1278e8	0.008939959
29	0xbcebbf46	-0.02877773
30	0xbcfa8d2f	-0.0305849
31	0xbd8f14dc	-0.069864005
32	0xbd52dabd	-0.051478136
33	0xbca44511	-0.020052465
34	0xbd166787	-0.036719825
35	0xbd690e10	-0.056898177
36	0xbbbf5bac	-0.0058397856
37	0x3eea01df	0.45704553
38	0xbd4e989a	-0.0504385
39	0x3becc2de	0.0072253784
40	0xbcc59e07	-0.024123205
41	0x3cf43410	0.029809982
42	0x3d07e43e	0.033176653
43	0x3ca7add0	0.020468622
44	0xbcd2b9cc	-0.02572336
45	0x3aefec8d	0.001830475
46	0xbce2b2ad	-0.02767309
47	0xbd74acd1	-0.059735123
48	0xbcd162f8	-0.025559887
49	0xbce6a5e5	-0.028155277
50	0xbe39f7ab	-0.18160884
51	0xbc0fc675	-0.008775343
52	0x3e1c41d1	0.15259482
53	0xbd3217c2	-0.04347969
54	0xbd5bd7b1	-0.053672496
55	0xb9effbd6	-0.00045773265
56	0xbda9b44c	-0.08286342
57	0xbf168acb	-0.5880553
58	0xbd4cf95f	-0.050042506
59	0xbd134eeb	-0.035963934
60	0xbb90224d	-0.00439862
61	0xbe138e9c	-0.1440987
62	0xbba02e5a	-0.004888338
63	0xbccf697c	-0.025318854

layers.2.weight f4 [128, 64]
0	0xbd6b5ec5	-0.057463426
1	0x3d6540bc	0.05596994
2	0xbdd5164e	-0.10404645
3	0x3dceca1e	0.100971445
4	0xbd9b02ae	-0.075688705
5	0x3dd2eeb8	0.10299438
6	0xbdd75a9e	-0.10515331
7	0xbdf5e2d2	-0.12006153
8	0x3cece148	0.028916016
9	0xbdde9d9e	-0.10869907
10	0xbd1b2e50	-0.037885964
11	0x3d5f92b8	0.05458328
12	0x3d9915d6	0.07474868
13	0xbd5aef5d	-0.05345093
14	0xbe10ef00	-0.14153671
15	0x3d1068f8	0.035256356
16	0x3c0b6cf0	0.008509859
17	0xbdc058e4	-0.093919545
18	0x3d69042c	0.056888744
19	0xbd76b114	-0.06022747
20	0x3bff0680	0.0077827573
21	0xbccbd9b0	-0.024884075
22	0x3d922168	0.07135278
23	0xbd255f34	-0.040373996
24	0xbec8d5f1	-0.39225724
25	0x3d2e802c	0.042602703
26	0x3bb3923b	0.0054800785
27	0xbcf6a2e0	-0.030106962
28	0xbdfcc534	-0.12342301
29	0xbdbd85d5	-0.09254042
30	0xbdd87e4c	-0.10570964
31	0xbd906437	-0.070503645
32	0xbbbbb140	-0.005727917
33	0xbdf19618	-0.11796206
34	0xbdde89a6	-0.10866098
35	0xbd72017c	-0.059083447
36	0xbd291dac	-0.041288063
37	0xbe340246	-0.17578992
38	0x3d049ad4	0.032374218
39	0xbd63a42d	-0.055576492
40	0x3dfd03d2	0.12354244
41	0x3e35a08d	0.17737027
42	0x3c964560	0.018343627
43	0x3c3da4f0	0.011574969
44	0xbbdf8a60	-0.0068219155
45	0xbdfc4de2	-0.123195425
46	0xbde53fe4	-0.11193827
47	0xbc304860	-0.010759443
48	0xbd2078c4	-0.03917767
49	0xbdfd2bf2	-0.123618975
50	0xbda9c2e2	-0.08289124
51	0xbd2b0874	-0.04175611
52	0xbe0680d4	-0.13135082
53	0x3dd8fb66	0.105948254
54	0x3dfd3836	0.12364237
55	0x3df5145c	0.11966774
56	0xbe441864	-0.1914993
57	0x3ecb6879	0.39728144
58	0xbda23c48	-0.07921654
59	0xbc0accd0	-0.008471683
60	0xbdcc0bf7	-0.099632196
61	0xbd9072ac	-0.07053122
62	0xbd4091f0	-0.047014177
63	0xbdbfcca8	-0.09365207
64	0xbccd292a	-0.025044043
65	0xbdbc4148	-0.09192139
66	0x3d3193b3	0.043353748
67	0xbdaa1b56	-0.08305995
68	0xbe02edf2	-0.12786081
69	0xbd12cb38	-0.035838336
70	0xbd764d78	-0.060132474
71	0xbc266e16	-0.0101580825
72	0x3c7931dd	0.015209642
73	0xbdb5e7bc	-0.088820904
74	0x3da5aefe	0.08090018
75	0x3c044b10	0.008074537
76	0x3e87b65f	0.26506326
77	0x3d113da2	0.03545917
78	0x3a841c4f	0.0010079237
79	0x3d92c848	0.07167107
80	0x3d9c7a7b	0.07640549
81	0xbb16bf9d	-0.0023002394
82	0xbda2aa3e	-0.07942627
83	0xbd90fd6e	-0.07079588
84	0x3bd50840	0.0065012276
85	0xbaa4d480	-0.0012575537
86	0x3c027179	0.007961624
87	0x3d319ca7	0.043362286
88	0xbe9f8f35	-0.31163946
89	0x3d84dd53	0.06487527
90	0xbcb89c38	-0.022535428
91	0x3e0c69cf	0.13712238
92	0xbd64ea78	-0.05588767
93	0x3c98b4de	0.018640932
94	0xbc6241e8	-0.013809659
95	0xbc500b86	-0.01269806
96	0xbd8cc2b1	-0.06873072
97	0xbdd8b715	-0.10581795
98	0x3e980d5d	0.29697695
99	0x3990bbb5	0.00027605673
100	0xbd84e704	-0.06489375
101	0xbe1287c1	-0.14309599
102	0xbe165034	-0.14679033
103	0x3c05eff1	0.008174882
104	0x3dd6db09	0.104909964
105	0xbcb73b08	-0.022367015
106	0xbd64b094	-0.05583246
107	0x3ddc8c36	0.107689306
108	0xbdf7268d	-0.120679
109	0xbd8fd01a	-0.07022114
110	0x3ce481d2	0.027893934
111	0x3d84803d	0.06469772
112	0x3ca933a0	0.0206545
113	0x3cfa734c	0.030572556
114	0xbded3578	-0.11582464
115	0xbe00248b	-0.1251394
116	0xbcd99664	-0.02656097
117	0xbcde5c2e	-0.027143564
118	0x3df079cc	0.11741981
119	0x3caf5df9	0.021407114
120	0xbe1bca1e	-0.1521382
121	0xbde37167	-0.11105614
122	0x3d838da3	0.064234994
123	0xbe1a4d89	-0.1506864
124	0x3e0a7482	0.13521007
125	0x3e2e2cad	0.1700923
126	0x3debc7cc	0.115127176
127	0xbd6dacdc	-0.05802618
128	0x3e893321	0.2679682
129	0xbe17ec22	-0.14836171
130	0x3d09a795	0.033607084
131	0xbe119848	-0.14218247
132	0xbdfbba8f	-0.122914426
133	0xbdbfdee5	-0.09368686
134	0xbbacb972	-0.0052711302
135	0xbd81a2ff	-0.06329917
136	0x3cd6f3cd	0.0262393
137	0x3e62f2ec	0.2216298
138	0xbcea29f1	-0.028584452
139	0x3daeba52	0.085316315
140	0x3d8f3c9b	0.069939815
141	0xbd82734a	-0.06369646
142	0xbbb0926d	-0.005388549
143	0xbce6efe8	-0.028190568
144	0x3c9cce37	0.0191413
145	0xbd8fb5b5	-0.0701708
146	0x3de49ff6	0.11163323
147	0x3d7683fa	0.060184456
148	0xbc199b90	-0.009375468
149	0xbdc317b8	-0.09526008
150	0xbdbf8703	-0.09351923
151	0x3b0e9adb	0.0021759782
152	0xbeaa197a	-0.33222562
153	0x3c470c18	0.0121488795
154	0xbd5d0bef	-0.05396646
155	0x3e350668	0.17678225
156	0x3d5a5c56	0.053310715
157	0x3cd2aa59	0.025715994
158	0x3e176b13	0.1478694
159	0x3dc68549	0.09693391
160	0x3ccb0365	0.024781892
161	0x3df6b051	0.120453484
162	0x3e81ff42	0.2539006
163	0x3c9630ff	0.01833391
164	0x3cb40cbb	0.021978727
165	0x3d765a18	0.060144514
166	0x3dabe9d4	0.083942086
167	0xbbd1572f	-0.006388567
168	0xbd1a46c6	-0.03766515
169	0x3df367f5	0.118850626
170	0x3da266d6	0.07929771
171	0xbdee8444	-0.116463214
172	0xbd7cb852	-0.06169922
173	0x3d480355	0.048831303
174	0x3d1157bc	0.03548406
175	0xbb4f69e8	-0.0031648818
176	0xbd8c16ce	-0.06840287
177	0xbddc2d78	-0.1075086
178	0xbd0f7ca5	-0.03503098
179	0x3d9037bf	0.07041883
180	0xbd6867c3	-0.05673958
181	0x3da3cb61	0.07997776
182	0xbdbbef15	-0.09176461
183	0xbcfc055b	-0.030764272
184	0x3c8f679e	0.017505463
185	0x3eb2d342	0.34926802
186	0xbca29b6b	-0.0198495
187	0x3d93f4a9	0.072243996
188	0x3d9a092e	0.07521282
189	0xbddb112b	-0.10696634
190	0xbd462ef0	-0.048384607
191	0xbda0ef46	-0.07858138
192	0xbd9195d8	-0.071086586
193	0x3dd8eaf0	0.10591686
194	0xbd81231c	-0.06305525
195	0x3df204b0	0.118173
196	0xbd3a6cc0	-0.04551387
197	0x3d5b8e30	0.053602397
198	0xbde0164a	-0.10941751
199	0x3e1a5f4e	0.15075418
200	0x3dfc0cbc	0.123071164
201	0xbd4e1d88	-0.050321132
202	0xbd081914	-0.03322704
203	0xbd0038e4	-0.031304255
204	0xbd54dd88	-0.05196908
205	0xbe563000	-0.20916748
206	0xbc2c467d	-0.010514853
207	0x3cfd7268	0.030938342
208	0x3d019674	0.031637624
209	0xbdd89a2a	-0.105762795
210	0x3cab77f0	0.020931214
211	0xbdc08f82	-0.09402372
212	0x3decd762	0.115645185
213	0xbd615164	-0.05500926
214	0xbdfa5908	-0.122240126
215	0xbd17b29c	-0.03703557
216	0xbd26b3ae	-0.0406987
217	0xbdbdf480	-0.0927515
218	0xbc3352ff	-0.010945081
219	0xbe1ecf0d	-0.15508671
220	0x3d669aec	0.05630009
221	0x3da43a12	0.080188885
222	0x3ca09768	0.019603446
223	0xbdc9c62d	-0.09852252
224	0xbda86aff	-0.08223533
225	0xbdf30eb2	-0.11868037
226	0x3e8a5caf	0.27023837
227	0xbd382b1c	-0.044962987
228	0x3dff9ce4	0.124810964
229	0xbe274726	-0.16335735
230	0xbdfc6bc8	-0.12325245
231	0xbe0ea652	-0.13930634
232	0x3c356810	0.011072174
233	0xbd352cac	-0.044232056
234	0x3de13956	0.10997264
235	0x3cee6188	0.02909924
236	0xbd0a5300	-0.03377056
237	0x3da0ec72	0.07857598
238	0x3dec7fc8	0.1154781
239	0xbdf7f5e8	-0.1210745
240	0x3dbcceca	0.092191294
241	0x3d515608	0.051107436
242	0x3dcb587a	0.09928985
243	0x3d204594	0.039128855
244	0xbdad01e9	-0.0844763
245	0x3dd73074	0.105072886
246	0xbdb3ff32	-0.08788909
247	0x3cceabb0	0.025228351
248	0xbdfd7084	-0.12374976
249	0xbd2d7f20	-0.042357564
250	0xbd0e7990	-0.0347839
251	0x3b18e8c0	0.002333209
252	0x3d9e33dc	0.07724735
253	0x3e431edb	0.19054739
254	0x3d68e2f8	0.05685708
255	0x3d5f2280	0.05447626

layers.2.bias f4 [128]
0	0xbe6f04ed	-0.23341723
1	0xbee10616	-0.43949956
2	0xbde6088e	-0.112321004
3	0xbe9746dd	-0.29546252
4	0xbd0cfa1e	-0.034418218
5	0xbd4d11b8	-0.050065726
6	0xbc1719a3	-0.009222421
7	0xbc1f9478	-0.009739988
8	0xbb5b2edf	-0.0033444685
9	0xbe7d0820	-0.2471013
10	0xbe82c33a	-0.2553957
11	0xbe15ca97	-0.14628063
12	0xbeba47af	-0.36382815
13	0xbeb428f6	-0.351875
14	0xbd886a57	-0.06660908
15	0xbd8ff552	-0.07029213
16	0xbe531521	-0.20613529
17	0xbdba52f4	-0.09097853
18	0xb022a590	-5.9170535e-10
19	0xbe697fd7	-0.22802673
20	0xbec3475d	-0.38140383
21	0xb380341e	-5.9699445e-08
22	0xbd7258a0	-0.05916655
23	0xbf58f1a5	-0.8474372
24	0xbfce3e47	-1.6112756
25	0xbecfc11e	-0.40577024
26	0xbeedf7b2	-0.4647804
27	0xbe87e9c0	-0.26545525
28	0xbdfc2596	-0.123118564
29	0xbeb875f0	-0.3602748
30	0xbbccd865	-0.006251382
31	0x3f1ddcbc	0.6166494
32	0xbfbbcb53	-1.4671425
33	0xbe820146	-0.25391597
34	0xbce2caf1	-0.02768466
35	0xbfb5ad4e	-1.4193513
36	0xbe95bbee	-0.2924494
37	0xb939649f	-0.00017680459
38	0xbe92fb31	-0.2870727
39	0xbe2d95b2	-0.16951635
40	0xbf321ce6	-0.69575346
41	0xbe1f109f	-0.15533684
42	0xb9be1f74	-0.00036263058
43	0xbfb73a05	-1.4314581
44	0xbe5d83a4	-0.21632248
45	0xbd01aa1f	-0.03165638
46	0xbefad62e	-0.4899153
47	0xbec8df23	-0.3923274
48	0xbe7c0d98	-0.2461456
49	0xbd794ea2	-0.060866006
50	0xbf79faaf	-0.9764814
51	0xbed2f87d	-0.41205207
52	0xbe42c588	-0.19020665
53	0xbdbd4064	-0.09240797
54	0xc1809d76	-16.076885
55	0xbebf1612	-0.37321526
56	0xbe9f8320	-0.31154728
57	0xbcc3ccf5	-0.023901442
58	0xb5764c3f	-9.1753094e-07
59	0xbeacf31f	-0.33779237
60	0xbecd166f	-0.40056178
61	0xbda0c9ff	-0.07851028
62	0xbe762cf3	-0.24040584
63	0xbe7a18a7	-0.24423467
64	0xbeee8774	-0.46587718
65	0x409daa22	4.927018
66	0xbb8e46ba	-0.0043419274
67	0xbe4ec15b	-0.20190947
68	0xbd774fd2	-0.060378857
69	0xb82a3f96	-4.0590377e-05
70	0xbea43754	-0.32073462
71	0xbe5be396	-0.21473536
72	0xbe418bbf	-0.18900965
73	0xbfd4c3b0	-1.6622219
74	0xc01bc686	-2.433992
75	0xbd721f4f	-0.05911189
76	0xbe48b836	-0.19601521
77	0xbe8f8631	-0.28032067
78	0xbe446abf	-0.19181345
79	0xbe5f510e	-0.21808264
80	0xbe9732dc	-0.2953099
81	0xbece14c9	-0.40250233
82	0xbf0494df	-0.5178966
83	0xbee54629	-0.4478009
84	0xbf66c921	-0.9015065
85	0xbe4adf18	-0.19811666
86	0xc0276eaa	-2.6161294
87	0xbe9223ca	-0.2854293
88	0xbe0179ce	-0.12644121
89	0xbd683d4a	-0.056699075
90	0xbff55d62	-1.9169123
91	0xbe42341f	-0.18965195
92	0xbe73e23e	-0.23816773
93	0xbd9d9059	-0.07693548
94	0xbc14c52e	-0.009080214
95	0xbe225e01	-0.15856172
96	0xbecfbc4b	-0.40573344
97	0xbeac5ed1	-0.3366609
98	0xb82bf66b	-4.099907e-05
99	0xbb6d343f	-0.0036194471
100	0xbeabf636	-0.33586282
101	0xbfc982b1	-1.5743009
102	0xbebbcc60	-0.36679363
103	0xbe2786c3	-0.16360001
104	0xbe624cc6	-0.22099599
105	0xbded2809	-0.11579902
106	0xbf407078	-0.75171614
107	0xbe5cf210	-0.21576715
108	0xbe4d926c	-0.20075387
109	0xbe58dd49	-0.21178164
110	0xbb6948ec	-0.0035596443
111	0xbeae8885	-0.3408853
112	0xbe7b70e3	-0.24554782
113	0xbeb88e17	-0.36045906
114	0xbc8c92a7	-0.017159773
115	0xbae5b578	-0.0017525395
116	0xbe8bfd5f	-0.27341744
117	0xaffec4bd	-4.6342122e-10
118	0xbe8d3213	-0.27577266
119	0xbda6f611	-0.08152402
120	0xbee9e632	-0.45683438
121	0xc017a1b1	-2.3692439
122	0xbeef1153	-0.46692905
123	0xbdcc9a92	-0.099904194
124	0xbede36f7	-0.4340131
125	0xbe350659	-0.17678203
126	0xbeee00b7	-0.4648492
127	0xbe94241d	-0.28933802

layers.4.weight f4 [1, 128]
0	0xbedf53e6	-0.43618697
1	0xbc4d443b	-0.012528474
2	0xbeb1be46	-0.3471548
3	0xbd5f15c2	-0.05446411
4	0xbedadb0e	-0.4274525
5	0xbea255d9	-0.31706122
6	0xbc360307	-0.01110912
7	0xbe7f3b1a	-0.24924889
8	0x39e94f5f	0.0004450036
9	0xbe019d63	-0.12657695
10	0xbe19e434	-0.15028459
11	0x3e227471	0.15864731
12	0xbebaa734	-0.3645569
13	0xbe24f176	-0.16107735
14	0x3d7cda55	0.061731655
15	0xbf0f517b	-0.55983704
16	0x3ca4c005	0.020111093
17	0xbe4b676f	-0.19863676
18	0x2f125599	1.3309033e-10
19	0x3d937bc0	0.07201338
20	0xbe09f37b	-0.13471787
21	0xbcde7f5d	-0.02716034
22	0x3d87a4b2	0.0662321
23	0xbd9cf0b8	-0.07663101
24	0xbdf9b396	-0.121924564
25	0xbe35546b	-0.17707984
26	0xbd39f643	-0.04540087
27	0x3cb638ad	0.022243822
28	0xbdfaf14b	-0.12253054
29	0xbe1a3c61	-0.15062095
30	0xbaaf4bff	-0.0013374089
31	0xbf4267d3	-0.75939673
32	0xbc9b37f6	-0.018947583
33	0xbdba21d6	-0.09088485
34	0xbdf7196d	-0.120653965
35	0xbe06d266	-0.13166198
36	0xbd925099	-0.07144279
37	0xbe0e377b	-0.13888352
38	0xbe0c4d02	-0.13701251
39	0xbe8f65c9	-0.28007343
40	0x3dc54c60	0.09633708
41	0xbec44889	-0.3833659
42	0xb89f39af	-7.592455e-05
43	0x3c895419	0.016763734
44	0x3dc38c8a	0.0954829
45	0xbe201f01	-0.15636827
46	0xbe1e46be	-0.15456674
47	0xbe80f704	-0.25188458
48	0xbc2abeb2	-0.010421442
49	0xbd8d838f	-0.069098584
50	0x3d8f816c	0.07007107
51	0xbda87bcd	-0.08226738
52	0xbd4121a0	-0.047151208
53	0x3d04af82	0.03239394
54	0x3dc53599	0.096293636
55	0xbddb25e6	-0.10700588
56	0xbda4355d	-0.08017991
57	0xbb369664	-0.0027860636
58	0xb99b96d2	-0.00029676274
59	0x3c51fa5a	0.012816036
60	0xbee34d5a	-0.44394952
61	0xbeaf51ed	-0.34242192
62	0xbe66da08	-0.2254411
63	0x3e0131db	0.12616675
64	0x3d511a5d	0.051050533
65	0xbe28918c	-0.16461772
66	0xbe1ec6c8	-0.15505517
67	0xbf485e3b	-0.78268784
68	0xbd755509	-0.05989555
69	0xb89ece55	-7.5724594e-05
70	0xbe70466d	-0.23464365
71	0x3e14f962	0.14548257
72	0xbe16d180	-0.14728355
73	0xbd1c9efb	-0.038237553
74	0xbdc6d32b	-0.09708246
75	0xbc03f473	-0.008053887
76	0xbdb9cb21	-0.09071947
77	0x3dee2d5a	0.11629744
78	0xbecc2ac4	-0.39876378
79	0xbe9e2a16	-0.30891484
80	0x3dbd5e1f	0.09246468
81	0xbe221af4	-0.15830594
82	0xbdd0184a	-0.10160883
83	0xbc4fcc06	-0.01268292
84	0xbca7246d	-0.020403111
85	0xbdf41761	-0.11918522
86	0xbdb1b184	-0.086764365
87	0x3d0c6229	0.0342733
88	0xbcf69b1a	-0.030103255
89	0xbe5c3f66	-0.2150856
90	0x3db71b9b	0.08940812
91	0xbe2d85ec	-0.16945618
92	0xbe096b34	-0.13419801
93	0xbd449344	-0.047992006
94	0xbc3076d6	-0.01077052
95	0xbeca43ca	-0.39504844
96	0xbdf9ccdb	-0.12197276
97	0xbe473a86	-0.19455919
98	0xbddc604a	-0.10760553
99	0x3bb4f296	0.0055220826
100	0xbe3cca1a	-0.1843647
101	0xbcb77424	-0.022394247
102	0x3cb26c17	0.021780057
103	0x3e04ed5e	0.12981173
104	0xbdc782b4	-0.097417265
105	0xbef33a80	-0.4750557
106	0x3daccbaf	0.08437287
107	0xbe1addc4	-0.1512366
108	0xbe14393e	-0.14474961
109	0xbe22d9a0	-0.1590333
110	0xb99043f2	-0.00027516444
111	0xbe42a70c	-0.19009036
112	0xbe191377	-0.14948831
113	0xbd19057a	-0.03735874
114	0xbdcb0edc	-0.099149436
115	0xbe16124b	-0.14655416
116	0xbde84fd5	-0.11343352
117	0xbd38b79e	-0.045096986
118	0xbca9a9c6	-0.020710837
119	0xbbff1984	-0.007785024
120	0xbdf82e3a	-0.12118192
121	0x3e09316f	0.13397764
122	0x3d798e41	0.06092668
123	0x3e1b9dc9	0.15196909
124	0xbe42b6a9	-0.19014992
125	0xbe9687b7	-0.29400417
126	0x3c577c30	0.013152167
127	0xbd30016e	-0.042970113
